Anime_recommender_system_using_wide_and_deep_learning_models/best_model.pth (torch, 201570 bytes, 14 tensors)

wide_embeddings.0.weight f4 [4, 16]
0	0x3f475320	0.77861214
1	0x36679d84	3.4513369e-06
2	0xb9c9d269	-0.00038494475
3	0xc01b78aa	-2.4292397
4	0x3e76dbda	0.24107304
5	0xbf429afb	-0.7601773
6	0x388fbe89	6.854261e-05
7	0x351a5c40	5.750371e-07
8	0x39acc114	0.0003295025
9	0x3fac63d5	1.3467966
10	0xb98cb362	-0.00026836531
11	0xbf5b648a	-0.85700285
12	0xbf4f5083	-0.80982226
13	0xb6ad6d3e	-5.1685192e-06
14	0xbf8189f6	-1.0120227
15	0x3f723098	0.946054
16	0x3f089e75	0.53366786
17	0x3865255e	5.4632656e-05
18	0xb904a2b7	-0.00012649117
19	0xbe2308c8	-0.15921319
20	0xbf4968ba	-0.78675425
21	0x3f8fb2fe	1.1226499
22	0xb81e5fe1	-3.775943e-05
23	0xb86ac3ed	-5.5972418e-05
24	0x390f9757	0.00013693921
25	0x3f839330	1.0279293
26	0xb9134c05	-0.00014047332
27	0x3fa73faf	1.306631
28	0xbecbd419	-0.39810255
29	0x37ca86b6	2.4143006e-05
30	0xbf09cc4c	-0.5382736
31	0x3f813035	1.0092837
32	0xbf80c07a	-1.0058739
33	0xbba3d8b0	-0.0050001964
34	0xbd2963b5	-0.041354854
35	0x3f19b267	0.60037845
36	0xbf13d416	-0.5774549
37	0x3edf35c1	0.43595698
38	0xbc8d210a	-0.017227668
39	0x3b94c66c	0.0045402553
40	0x3d212bec	0.039348528
41	0x3fc40160	1.531292
42	0xbd17531f	-0.036944505
43	0x3e97fada	0.29683572
44	0xbffc650e	-1.971834
45	0xbaae4d36	-0.0013298157
46	0xc0088ac7	-2.1334703
47	0x3ea16fc3	0.3153058
48	0xbee85472	-0.45376927
49	0xb884e96a	-6.337727e-05
50	0x3a09cef0	0.00052569713
51	0xbdd56685	-0.10419945
52	0xbf1cf6bc	-0.61313987
53	0x3f9e25c6	1.2355278
54	0x38918565	6.9389855e-05
55	0x3884b64d	6.328207e-05
56	0xba029235	-0.0004980893
57	0x3d7e303a	0.06205771
58	0x39f38df8	0.00046454347
59	0x3f4f1968	0.8089814
60	0xbe90bf1e	-0.2827081
61	0xb7ca8afa	-2.4144992e-05
62	0xbfad32c8	-1.3531122
63	0x3fbcf39c	1.4761844

wide_embeddings.1.weight f4 [7, 16]
0	0x3b2b3a44	0.0026127258
1	0x3f85a134	1.043982
2	0x4012d331	2.29414
3	0x3f0f22b9	0.5591236
4	0x3f875f42	1.0575945
5	0xbb0f12e8	-0.0021831337
6	0x3b8f461a	0.0043723704
7	0xbb86e91e	-0.004117145
8	0x3e90ff83	0.2831994
9	0x3f655efc	0.8959806
10	0xbf1d6e12	-0.6149608
11	0x3f5098db	0.8148324
12	0x3e287add	0.16453119
13	0x3a970804	0.0011522775
14	0xc0108d52	-2.2586255
15	0xbe9f6a4d	-0.3113579
16	0x3b7accac	0.0038268967
17	0x3f5030a3	0.81324214
18	0xbd49e835	-0.049293716
19	0x3f1add3b	0.6049382
20	0x3ff0094e	1.875284
21	0xbca1c5ff	-0.019747732
22	0x3c0a64fb	0.008446927
23	0xbc1debd7	-0.009638748
24	0x3fe3c552	1.7794592
25	0x3f4df5f2	0.8045341
26	0xc00ea897	-2.22904
27	0x3fe6c658	1.802928
28	0xc0290edb	-2.6415317
29	0xba8d348b	-0.0010773105
30	0xbd4462a1	-0.047945622
31	0x3fc1237c	1.5088954
32	0xbb9dbc8d	-0.004813737
33	0x3f5ad246	0.854771
34	0x3fa6f2d9	1.3042861
35	0x3f04d9fe	0.5189513
36	0x3fbc252f	1.4698848
37	0xbbae3544	-0.0053164084
38	0xbbf179d0	-0.0073692575
39	0x3bc80507	0.006104115
40	0x3edb2f6c	0.42809618
41	0x3fa73292	1.3062308
42	0xbee6ccc4	-0.450781
43	0x3f3ff740	0.7498665
44	0xbe966392	-0.2937284
45	0xbab40f01	-0.0013737382
46	0xbf21e0c1	-0.6323357
47	0x3e0b9de4	0.13634449
48	0xba4a37b7	-0.00077139906
49	0x3ef0e876	0.47052354
50	0x3e9cd6b7	0.30632564
51	0x3f4ad006	0.7922367
52	0x3fc9f90a	1.5779126
53	0xbb33aff9	-0.002741812
54	0xba527f38	-0.00080298213
55	0x39f8fcbe	0.00047490554
56	0x3f150d5e	0.5822352
57	0x3f6c0b00	0.92204285
58	0xbf44f037	-0.7692904
59	0x3fb1b556	1.3883464
60	0x3e2a2031	0.16613843
61	0xba201a6b	-0.0006107452
62	0xbe89f898	-0.26947474
63	0x3f4ed8de	0.80799663
64	0x3a91ff30	0.0011138674
65	0x3f9591c0	1.1685104
66	0xbf5f5f86	-0.8725513
67	0xbf2a75b2	-0.6658584
68	0x3f034e5b	0.51291436
69	0x3c6571f6	0.014004221
70	0xbaadcae8	-0.0013259323
71	0x3b3bfa6e	0.0028683203
72	0x3f9f2747	1.2433861
73	0x3edce630	0.4314437
74	0xc006aa7d	-2.1041558
75	0x3f9d536e	1.2291086
76	0xbf1d78cf	-0.61512464
77	0x3af20fa5	0.0018467797
78	0xbf83b4f5	-1.0289599
79	0x3f482fd6	0.7819799
80	0xb9983141	-0.00029028396
81	0x3f55ce86	0.83518255
82	0x3fa1f9cd	1.2654358
83	0x3f353f3b	0.7079961
84	0x3eb86d80	0.36021042
85	0xba2dc1e9	-0.0006628321
86	0xb9870864	-0.00025755458
87	0x38e5222d	0.00010925937
88	0x3e9b297b	0.30305085
89	0x3f469b5a	0.775808
90	0xbec76672	-0.38945347
91	0x3fbc660e	1.4718645
92	0xbffcd34a	-1.975198
93	0xb987652a	-0.0002582458
94	0xbf580a79	-0.8439098
95	0x3f30987e	0.68982685
96	0xbfdc85cd	-1.7228333
97	0x3f4ab485	0.791817
98	0x3f16741a	0.58770907
99	0x3e5cde83	0.21569256
100	0x3f59afbf	0.8503379
101	0xbf2a3356	-0.6648458
102	0x3e098fe7	0.134338
103	0xbf1a7542	-0.6033517
104	0xbf85106e	-1.0395639
105	0x3ff53ce7	1.9159211
106	0x3f39d3ed	0.72589
107	0x3f1d9a82	0.61563885
108	0xc0070133	-2.1094482
109	0x3e5769fc	0.21036524
110	0x3e59d526	0.21272716
111	0x4025bd84	2.589692

wide_embeddings.2.weight f4 [3, 16]
0	0x3f9fcb40	1.2483902
1	0xbf9758b4	-1.1823945
2	0x3d165cda	0.036709644
3	0xbfbbc9d4	-1.4670968
4	0xbfff85eb	-1.9962744
5	0xbed0abec	-0.40756166
6	0x3daa611b	0.08319303
7	0x3f470f38	0.77757597
8	0x3f4311fd	0.7619932
9	0xbebb5bcd	-0.36593476
10	0xc03e8811	-2.9770548
11	0xbf971802	-1.1804202
12	0x3ab5df01	0.0013875664
13	0x3f464507	0.7744908
14	0x3fe2bc49	1.771371
15	0x4005d0a6	2.09086
16	0x3ff58a60	1.9182854
17	0xbf721088	-0.94556475
18	0x3f0e7560	0.5564785
19	0xbeb9c15b	-0.3628033
20	0xbfa70609	-1.3048717
21	0x3ee28d5f	0.44248483
22	0x3f18b368	0.5964875
23	0x3fc6c189	1.5527812
24	0x3f3731ac	0.7156017
25	0x400e9f2d	2.2284653
26	0xbf2e0a26	-0.67984235
27	0xbf767346	-0.96269643
28	0xb8df3203	-0.00010642784
29	0x3fa6c049	1.3027431
30	0x3fb7d48a	1.4361737
31	0x3f536efd	0.8259123
32	0x3e7935cd	0.2433693
33	0xc003fb62	-2.0622182
34	0x3ea7f821	0.32806495
35	0xbfd32fe5	-1.6498991
36	0xbf5609ac	-0.8360851
37	0x3fb6d6f5	1.428435
38	0x3f6403a7	0.89068073
39	0xbf9b4f39	-1.2133552
40	0x3f31df80	0.6948166
41	0x400510b4	2.0791445
42	0xc0323d10	-2.784977
43	0x3ee25998	0.4420898
44	0xbc2ca3fa	-0.010537142
45	0x3f1cdafd	0.6127165
46	0x40013021	2.0185626
47	0x4034bcab	2.8240154

wide_embeddings.3.weight f4 [1349, 16]
0	0x3e820789	0.25396374
1	0x3ff74ab9	1.9319679
2	0x3e24130a	0.16022888
3	0xbfa8c393	-1.3184685
4	0xbea1c29f	-0.31593797
5	0x3ea5b2d5	0.32363
6	0x3f263d51	0.6493731
7	0x3fd885fd	1.691589
8	0x3e496f87	0.1967145
9	0xbf94ed59	-1.1634933
10	0xbfe82af9	-1.8138114
11	0xbf53cf16	-0.82737863
12	0x3e875e93	0.26439342
13	0x3df6307e	0.12020968
14	0xbc618f54	-0.013767082
15	0x3e22b3c2	0.15888885
16	0x3f59ed15	0.85127383
17	0x40030167	2.0469606
18	0x3f861399	1.0474731
19	0xbfa7fb48	-1.312356
20	0x3f65dc30	0.89789104
21	0x3fe0774e	1.7536409
22	0x3fb5e78b	1.4211286
23	0x3dd56a7f	0.10420703
24	0x4042d7b9	3.0444167
25	0xc01f3098	-2.487341
26	0x4028a777	2.6352212
27	0x4012d96f	2.294521
28	0x4013c5c9	2.3089468
29	0xbe31dbdb	-0.17369024
30	0xbfa323d2	-1.2745306
31	0xbfc62f75	-1.5483233
32	0xbf64a180	-0.8930893
33	0x3eb6bf97	0.35693046
34	0xbfb69263	-1.4263424
35	0xbfb31321	-1.3990213
36	0xbfd71821	-1.6804239
37	0x3e60a73a	0.21938792
38	0xbeaa1d9b	-0.33225712
39	0x3f6cd417	0.92511123
40	0xbfe61a53	-1.7976784
41	0x3dc38f6d	0.09548841
42	0x3f03d73d	0.515003
43	0xbe2c2968	-0.1681267
44	0x3f8d05a9	1.1017352
45	0x3ee6b08d	0.45056573
46	0xbfe2ae62	-1.7709467
47	0x3e69c168	0.22827685
48	0xbf93e3fe	-1.1553953
49	0x3f59e6c5	0.8511775
50	0xc0157e11	-2.3358195
51	0xbe7eb616	-0.24874148
52	0x3dd1c395	0.102423824
53	0xbf058422	-0.52154744
54	0x3ff80a75	1.9378191
55	0xbd973e36	-0.07384913
56	0x3fb57ddf	1.4179038
57	0x3fdb384c	1.7126555
58	0x3f7441a9	0.9541269
59	0x3f9a2ea1	1.204548
60	0x3f23405b	0.63770074
61	0x3f83e8a5	1.0305372
62	0x3d48b628	0.049001843
63	0xbe877d7a	-0.2646292
64	0x3f8b1d8e	1.0868394
65	0xbf66a975	-0.9010232
66	0xbec3735b	-0.38173947
67	0xbf0dd473	-0.55402297
68	0xbe4b4b43	-0.19852929
69	0xbc6d48e2	-0.014482709
70	0xbf1a640e	-0.6030892
71	0xbdd3c9cf	-0.10341226
72	0x4008a2dd	2.1349404
73	0x3e10580d	0.14096089
74	0x3f8674e6	1.0504425
75	0x3f530319	0.824266
76	0x3da866c1	0.08222724
77	0x3d26f99a	0.040765382
78	0x3f9d1ecf	1.2275027
79	0x3f194ae7	0.59879917
80	0x3f535535	0.8255189
81	0xbef9821d	-0.4873208
82	0xbdb0f951	-0.08641303
83	0xbf840079	-1.0312644
84	0x3ed25d39	0.41086748
85	0x3f818837	1.0119694
86	0xbfbc7749	-1.4723903
87	0xbd88a9fb	-0.06673046
88	0x3db12d3d	0.08651207
89	0xbf9e29c8	-1.2356501
90	0x3e38fc3e	0.18064973
91	0xbf14f7f1	-0.5819083
92	0xbe3c5474	-0.18391591
93	0xbd3cd3c4	-0.046100393
94	0x3f25d9e6	0.6478561
95	0xbf847b1c	-1.035007
96	0x3ee5461a	0.44780046
97	0xbe93a65d	-0.28837863
98	0xbcde99bb	-0.027172914
99	0xbf93a945	-1.1536032
100	0x3e7bcb97	0.24589382
101	0x3eaaab9b	0.3333405
102	0x3e275b12	0.16343334
103	0xbd1a54c3	-0.03767849
104	0x3e9f26c7	0.31084272
105	0x3dcd8b2a	0.10036309
106	0xbefb4f40	-0.490839
107	0xbe5b1084	-0.21393019
108	0x3f0a7b7e	0.54094684
109	0x3c84d2ff	0.016213892
110	0xbe8819ac	-0.26582086
111	0xbdd65297	-0.104649715
112	0x3f2a6db2	0.6657363
113	0x3e8e099d	0.2774171
114	0x3c5ca070	0.013465986
115	0xbcffcde4	-0.031226106
116	0x3ea974b2	0.33096844
117	0xbf20ee4f	-0.6286363
118	0xbe8aa074	-0.2707554
119	0xbe00b25c	-0.12568039
120	0x3f224127	0.63380665
121	0x3f5d12c7	0.86356777
122	0xbea87bab	-0.3290685
123	0x3f363739	0.71178013
124	0x3f2bfd13	0.67183036
125	0x3daf3c9b	0.085564815
126	0xbeca4930	-0.39508963
127	0xbeb3f9af	-0.3515143
128	0xbea09874	-0.31366313
129	0x3f22d708	0.6360936
130	0x3d486ded	0.04893296
131	0xbfd3bfb7	-1.6542882
132	0x3e69d821	0.22836353
133	0xbe123338	-0.14277351
134	0xbdf82ed7	-0.12118309
135	0x3ec350de	0.38147634
136	0x3ff41464	1.9068723
137	0x3f929cfe	1.145416
138	0x3f4a73fe	0.7908324
139	0x3f146c36	0.57977617
140	0xbf8d2e22	-1.1029704
141	0xbdd10cd2	-0.102075234
142	0xbf230284	-0.63675714
143	0x3faeacfb	1.364654
144	0x3daa757f	0.08323192
145	0x3eb8ee12	0.36119133
146	0x3f8d3730	1.1032467
147	0x3fa86fba	1.3159096
148	0x3f181a66	0.5941528
149	0x3f762852	0.96155274
150	0x3d59a51f	0.053135987
151	0x3eea3a17	0.45747444
152	0x3e0bf4dc	0.13667625
153	0xbfb0d8d9	-1.3816177
154	0xbf5a9824	-0.853884
155	0x3f62af96	0.8854917
156	0xbe813be4	-0.25241005
157	0xbb2c201e	-0.002626426
158	0xbf47a414	-0.7798474
159	0xbf173a48	-0.59073305
160	0x3f20e905	0.6285556
161	0x3d84d7d7	0.06486481
162	0x3e67d623	0.2264028
163	0x3e6219e0	0.22080183
164	0x3f9203ee	1.1407449
165	0xbf3ebb8a	-0.7450491
166	0xbed21950	-0.41034937
167	0xbe84e778	-0.25957847
168	0xbf1c5315	-0.61064273
169	0xbfef8723	-1.8713115
170	0xbd876457	-0.06610935
171	0x3f2c21c3	0.67239016
172	0x3f41c0fc	0.75685096
173	0x3d3884c1	0.04504848
174	0xbf52a626	-0.8228477
175	0x3f2fb71c	0.6863878
176	0x3e3ceb2d	0.18449087
177	0xbf5c5a8b	-0.8607566
178	0xbd33cc8a	-0.043896236
179	0xbeca563b	-0.39518914
180	0x3f617067	0.8806214
181	0xbe694d7b	-0.22783463
182	0x3e72dd37	0.237172
183	0xbdd8cae5	-0.10585574
184	0x3f658a8d	0.89664537
185	0xbfa85e38	-1.3153753
186	0x3f3c4bef	0.73553365
187	0x3f4f5246	0.80984914
188	0x3cd0b064	0.025474735
189	0xbeb5134a	-0.3536628
190	0xbe90be15	-0.2827002
191	0x3f129f1f	0.5727405
192	0x3eddcdcc	0.43321073
193	0xbfc88b79	-1.5667564
194	0xbf4bbdc4	-0.79586434
195	0x3f60130c	0.87529063
196	0xbf40373a	-0.7508427
197	0xbf62b54d	-0.88557893
198	0xbe793d5c	-0.24339813
199	0xbf97031a	-1.1797822
200	0xbf461f29	-0.77391297
201	0xbefdd3d2	-0.4957567
202	0x3dd27ebe	0.102780804
203	0xbe3da21c	-0.18518871
204	0x3f41df70	0.75731564
205	0xbed1290a	-0.40851623
206	0xbea9d7c4	-0.3317243
207	0x3f6d6a73	0.92740554
208	0xbf09a13c	-0.5376165
209	0x3f89d83a	1.0769112
210	0xbf16101e	-0.5861834
211	0x3fbbce16	1.4672267
212	0x3f4fe528	0.8120904
213	0xbdc7c5e7	-0.09754544
214	0x3f199d59	0.6000572
215	0x3f886fcb	1.0659117
216	0x3f24b5d1	0.6433993
217	0xbf9e0038	-1.2343817
218	0xbd20b2af	-0.039232906
219	0xbf9a83c5	-1.2071463
220	0xbe0967a8	-0.13418448
221	0x3f8c70b4	1.0971894
222	0x3f5d294c	0.8639114
223	0xbf307ab8	-0.68937254
224	0xbf5da45f	-0.86578935
225	0x3f1970f5	0.59937984
226	0x3e119528	0.14217055
227	0xbed61d13	-0.41819057
228	0x3d9e8fa2	0.077422395
229	0xbf0bb084	-0.54566216
230	0xbe5ceca5	-0.21574648
231	0x3e224e05	0.15850075
232	0x3f9863cd	1.1905457
233	0xbe8f2e98	-0.27965236
234	0xbcfb21e0	-0.030655801
235	0x3f2eb013	0.6823742
236	0x3f0fb4b2	0.56135094
237	0x3e534f97	0.2063583
238	0xbf76f99d	-0.9647463
239	0x3f253361	0.64531523
240	0x3f4d94ed	0.8030537
241	0xbf7a0551	-0.9766436
242	0xbdb77ee3	-0.089597486
243	0x3e9b9530	0.3038726
244	0xbe0c0c6a	-0.1367661
245	0x3f67ca33	0.90542907
246	0xbfcc2b29	-1.5950671
247	0xbfaec432	-1.3653624
248	0xbfaa50cd	-1.3305908
249	0x3f119e46	0.5688213
250	0x3de77f70	0.11303604
251	0xbf83ef35	-1.0307375
252	0x4020fb2b	2.51533
253	0x3faed000	1.3657227
254	0x40119ac6	2.2750716
255	0xbf4acd6e	-0.7921971

wide_embeddings.4.weight f4 [17, 16]
0	0xbf4b13fb	-0.7932736
1	0x3b7e7a72	0.0038830307
2	0xbd15dccf	-0.036587533
3	0xbb26e53d	-0.0025466227
4	0xbc895b75	-0.016767243
5	0x3e818a42	0.25300795
6	0xbdde1489	-0.108437605
7	0xbbcdc3dd	-0.0062794522
8	0xba39d79b	-0.00070893177
9	0x3fe95638	1.8229437
10	0xbf5ed953	-0.8705036
11	0xbd381dc1	-0.04495025
12	0x3ca8fa53	0.020627176
13	0xbeb88ae0	-0.36043453
14	0x3bb49f39	0.005512145
15	0x3ca78eb3	0.020453786
16	0xbe2b5629	-0.16732086
17	0xbd2ad06e	-0.04170268
18	0x3f088613	0.5332958
19	0x3c8fbd1c	0.017546229
20	0x3d06a0a3	0.03286804
21	0xbf0e5fd3	-0.55614966
22	0xbf18902c	-0.5959499
23	0xbdbf8468	-0.09351426
24	0xbd49deca	-0.049284734
25	0xbd38df75	-0.04513498
26	0xbf953f43	-1.1659931
27	0x3c700979	0.014650696
28	0xbbbe024c	-0.0057986137
29	0xbf22385b	-0.6336724
30	0x3df08aa5	0.11745194
31	0x3ce84897	0.028354926
32	0x3f8d9410	1.106081
33	0xbdb31250	-0.08743727
34	0x3f25cf42	0.64769375
35	0xbc54bc02	-0.012984278
36	0xbd0f512e	-0.03498953
37	0xbf698dad	-0.91231805
38	0xbf5a1021	-0.8518086
39	0xba21f13c	-0.00061776093
40	0x3cc03d68	0.02346678
41	0x3f5ff6c2	0.874859
42	0xbe745cd5	-0.23863538
43	0xbdb8002b	-0.08984407
44	0xbe3a6371	-0.18201996
45	0x3f5e9779	0.8694988
46	0x3ca8ae55	0.02059094
47	0x3d1b7aac	0.037958786
48	0xbf2c90fb	-0.6740872
49	0x3c9a4a2c	0.018834196
50	0xbfa199f9	-1.2625114
51	0xbc47af2c	-0.01218776
52	0xbd32f551	-0.043690983
53	0xbe8ea8ac	-0.2786306
54	0x3ba3e5ad	0.0050017447
55	0x3cd199a8	0.025585964
56	0x3b14ab33	0.002268505
57	0xbf859fb5	-1.0439364
58	0xbd2d300b	-0.042282145
59	0x3ca6a2c0	0.020341277
60	0xbdb42831	-0.087967284
61	0x3da63c09	0.081169195
62	0x3bd41307	0.006471995
63	0x3ce5529c	0.027993493
64	0xbe840014	-0.2578131
65	0x3c49a29b	0.012306835
66	0xbf5effad	-0.8710888
67	0xb8eccc40	-0.000112914015
68	0x3bd8ee61	0.006620214
69	0xbec2775a	-0.37981683
70	0x3e341aae	0.17588302
71	0x3a3f258a	0.00072916655
72	0xbbef8a2c	-0.0073101725
73	0x3ed61817	0.41815254
74	0x3e7bb053	0.24578981
75	0xb980af76	-0.0002454479
76	0xbcbadf96	-0.022811692
77	0x3de870ac	0.113496155
78	0xbb338e1e	-0.002739794
79	0xbb63919e	-0.0034724246
80	0x3ef7286e	0.48273033
81	0xb8918088	-6.9380796e-05
82	0x3e3898b7	0.18027006
83	0xbba46364	-0.005016731
84	0xbc0446d0	-0.008073524
85	0xbe1cc857	-0.15310799
86	0xbe85246c	-0.2600435
87	0xbb53b26b	-0.003230239
88	0xbad402f7	-0.00161752
89	0x3fa788df	1.3088645
90	0xbd512a0d	-0.051065493
91	0xbbc3955a	-0.005968732
92	0x3c1ba863	0.009500596
93	0xbe11df03	-0.14245228
94	0xbb8baed3	-0.004262784
95	0x3b37801e	0.0027999948
96	0x3d6fd3d2	0.058551617
97	0x3d970eae	0.07375847
98	0x3eb630e8	0.35584188
99	0x3cfb6f8f	0.030692844
100	0x3ca08e5b	0.01959913
101	0xbe2f6f51	-0.17132308
102	0xbf9ac198	-1.209033
103	0xbda5cca4	-0.08095673
104	0xbdb146c8	-0.086560786
105	0xbfad9cd4	-1.3563485
106	0xbfa2ec55	-1.2728373
107	0x3cbfecab	0.023428282
108	0xbf5ec054	-0.8701222
109	0xbf45b006	-0.77221715
110	0xbe116fa2	-0.14202741
111	0x3c91507c	0.017738573
112	0x3faebf79	1.3652183
113	0x3cd0a768	0.02547045
114	0xbfbd0186	-1.476609
115	0x3c5e15d1	0.013555006
116	0xb95d30f8	-0.00021094445
117	0xbff25347	-1.8931664
118	0xbfb7965d	-1.4342762
119	0xbca8c2a6	-0.020600628
120	0xbd006e94	-0.031355456
121	0x3fa44e5f	1.2836417
122	0xbf796312	-0.97416794
123	0xbc86bc86	-0.016447317
124	0xbe21d6b1	-0.15804555
125	0xc00d629f	-2.2091444
126	0xbd0d33e0	-0.0344733
127	0x3cc97293	0.024590766
128	0x3ec8728d	0.39149895
129	0xbcc9476c	-0.02457019
130	0x3f659dec	0.89694095
131	0xbcb6c217	-0.022309346
132	0x39833a02	0.00025029486
133	0xbf8babb3	-1.0911773
134	0xbe03cf1d	-0.12871976
135	0xbbc85aa8	-0.0061143227
136	0x3cebc8b3	0.028782224
137	0xbf3f992d	-0.748431
138	0x3e97d690	0.29655886
139	0x3d1f1d69	0.038846407
140	0x3d8c4673	0.068493746
141	0xbf600f05	-0.8752292
142	0x3d3a7e67	0.045530703
143	0xbc678fe6	-0.014133429
144	0x3bb5d919	0.0055495617
145	0xbb94a24d	-0.0045359493
146	0xbf286ef0	-0.6579428
147	0xba87986b	-0.0010345107
148	0x3b033079	0.0020017906
149	0x3e8e0206	0.2773592
150	0xbe476f96	-0.1947616
151	0x39a3e4f1	0.00031260357
152	0x3c3b4268	0.011429407
153	0x3ec2f146	0.38074702
154	0xbe3dea3b	-0.18546383
155	0x3c9b4609	0.018954294
156	0xbc867c2b	-0.01641663
157	0xbe6af991	-0.22946765
158	0x3b7951b0	0.0038043074
159	0xba6c5a24	-0.00090161175
160	0xbd91018b	-0.070803724
161	0x3b8835d1	0.004156806
162	0xbf7b71c8	-0.9822049
163	0x3c52ec16	0.01287367
164	0x3bf918ff	0.0076018567
165	0x3eec37c2	0.4613629
166	0xbe57600f	-0.21032737
167	0x3ca3db81	0.020002129
168	0xbab3777f	-0.0013692229
169	0xbd761452	-0.060077973
170	0xbf831ddd	-1.0243489
171	0x3c2dbdae	0.010604305
172	0x3e191652	0.14949921
173	0xbe3deebf	-0.18548106
174	0xbc269962	-0.010168405
175	0xbca8852a	-0.02057131
176	0x3f95fd63	1.1717952
177	0x3cb6d563	0.022318548
178	0x3e903ec0	0.28172874
179	0xbe4b2e98	-0.19841993
180	0xbe91a916	-0.28449315
181	0x3f6c0cb3	0.9220688
182	0xbf8a9c36	-1.0828922
183	0x3e8eba1f	0.27876374
184	0x3e1a4756	0.15066275
185	0xbef35117	-0.47522804
186	0xc044137e	-3.0636897
187	0x3ac88584	0.001529858
188	0xc00c3005	-2.1904309
189	0xbf3472c3	-0.7048761
190	0x3e21159e	0.15730903
191	0x3dc3e12f	0.09564435
192	0xbfbe9956	-1.4890544
193	0x3b82f376	0.003996308
194	0x3f90b64c	1.1305633
195	0x3f43cc96	0.7648405
196	0x3e06e9d9	0.13175143
197	0xbe4214c2	-0.18953231
198	0xbf208d54	-0.6271565
199	0x3f44ffbf	0.7695274
200	0xbe05b522	-0.13057378
201	0xbe26d139	-0.1629075
202	0xbd26487d	-0.040596474
203	0xbf18a6cc	-0.5962951
204	0x3f9669a2	1.1750987
205	0xbebeca72	-0.3726383
206	0xbe040d47	-0.1289569
207	0x3dbedd9e	0.09319614
208	0x3f096c4a	0.5368086
209	0x3bde5d49	0.006786023
210	0x3f15a481	0.5845414
211	0x3d0e47aa	0.034736313
212	0x3d0d7c21	0.034542207
213	0xbf61548a	-0.8801962
214	0xbfd14ed7	-1.6352185
215	0xbb96f237	-0.004606511
216	0xbce0be96	-0.027434628
217	0x3f898872	1.0744765
218	0xbee015c8	-0.43766618
219	0x3b2aefd0	0.002608288
220	0xbd444a87	-0.047922637
221	0x3f4bb244	0.79568887
222	0xbc7c8cfe	-0.0154144745
223	0xbc035da1	-0.008017928
224	0x3ed2bd55	0.41160074
225	0x3ac3f145	0.0014949223
226	0xbea4f61c	-0.32219017
227	0x3c851c86	0.016248953
228	0x3c110f84	0.008853797
229	0xbfab2c6f	-1.3372935
230	0x3f10614c	0.56398463
231	0xba4145a1	-0.0007372741
232	0xbc39ebee	-0.011347754
233	0xbd1a752e	-0.037709408
234	0xbe8cadee	-0.27476448
235	0xbc01e727	-0.007928646
236	0xbc9d9bb9	-0.019239293
237	0x3f3f962f	0.74838537
238	0xbbdeadb0	-0.0067956075
239	0x3b75bb0a	0.0037495517
240	0x3ecd6805	0.40118423
241	0xbc8c572e	-0.017131414
242	0xbe979fcc	-0.29614103
243	0xbbb3e75a	-0.0054902257
244	0x3cd0b162	0.025475208
245	0xbe907c3e	-0.2821979
246	0xbeb0730a	-0.34462768
247	0x3d042544	0.0322621
248	0x3d79e37e	0.06100797
249	0x3d132728	0.035926014
250	0xbe9e2b5c	-0.30892456
251	0x3d127664	0.035757437
252	0x3c04e3b6	0.008110931
253	0xbf137a22	-0.57608235
254	0x3caa01c3	0.020752793
255	0xbccb02c7	-0.024781598

wide_embeddings.5.weight f4 [7, 16]
0	0x3a4c572b	0.00077949715
1	0xbeb1ac0e	-0.3470158
2	0x3c8c50fc	0.01712846
3	0xbfb6a412	-1.426882
4	0xbfb8a647	-1.4425744
5	0xbf5ef13e	-0.87086856
6	0x3fc18198	1.5117674
7	0x3c771c07	0.015082366
8	0x3f8ff958	1.1247969
9	0x3f7b58e6	0.98182523
10	0xbc53601f	-0.012901335
11	0xbfa9ceac	-1.3266196
12	0xbe27cbde	-0.16386363
13	0x3f101976	0.5628885
14	0x3eb75a4b	0.35811076
15	0x3c341394	0.010990996
16	0xbbbf5345	-0.005838784
17	0xbf544afc	-0.8292692
18	0x3b3e3afd	0.002902686
19	0xbe8a200d	-0.26977578
20	0x3fa72aba	1.3059914
21	0xbfeabd77	-1.833907
22	0x3ee5d7fe	0.4489135
23	0x3c48e47e	0.012261508
24	0x3f100886	0.56263006
25	0x3ecab537	0.3959138
26	0xbc39e525	-0.011346136
27	0xbfb4e602	-1.4132693
28	0xbfba5062	-1.4555781
29	0x3f968cbd	1.17617
30	0x3e17bd74	0.14818364
31	0x3c3ecfdb	0.011646236
32	0xba3cfa41	-0.00072089216
33	0xbeed9146	-0.46399897
34	0xbb8c9abb	-0.0042909062
35	0xbf86a8e5	-1.0520293
36	0xbfdabebc	-1.7089458
37	0xbf143d33	-0.5790588
38	0x3f45b7d7	0.7723364
39	0xbb05aee9	-0.0020398444
40	0x3f6ccbae	0.9249829
41	0x3ed813fb	0.42202744
42	0x3b3b42c8	0.002857374
43	0xbf64fd29	-0.8944879
44	0xbf229b51	-0.63518244
45	0x3e528757	0.2055944
46	0x3f88b7be	1.0681074
47	0xbb1a2ddb	-0.0023525867
48	0xbaf6497d	-0.0018790212
49	0xbfb30839	-1.3986884
50	0x3aa03c2c	0.0012224964
51	0xbf5528b6	-0.83265245
52	0xbfb831be	-1.439018
53	0xbff22276	-1.8916767
54	0xbf00691a	-0.5016037
55	0x3adb7094	0.0016741925
56	0x3f6435bb	0.89144486
57	0x3f06308d	0.5241783
58	0xbb4deb51	-0.0031420777
59	0x3f5cedb5	0.8630021
60	0xbf84d5df	-1.0377768
61	0x3ea4a015	0.32153383
62	0x3f85499b	1.0413088
63	0x3b7547ec	0.0037426902
64	0x3a02b448	0.00049859704
65	0xbdfb7799	-0.12278671
66	0x39ec18f1	0.0004503201
67	0xbf0b8f8d	-0.54515916
68	0xbfcd5d05	-1.6044012
69	0xbf65f749	-0.8983045
70	0xbe8db15e	-0.27674383
71	0xbb7dbe5e	-0.0038718204
72	0x3e491de1	0.19640304
73	0x3fb9b022	1.4506876
74	0xba8182ad	-0.0009880863
75	0x3f5a7e5a	0.8534905
76	0xc000e3d1	-2.0139048
77	0xbc80eb56	-0.015737217
78	0xbfe14d31	-1.7601682
79	0xba2bda64	-0.0006555675
80	0xba69bae3	-0.0008916093
81	0xbfd2d25a	-1.6470444
82	0xba2c9cbe	-0.00065846357
83	0xbf528478	-0.8223338
84	0xbfa41a77	-1.2820576
85	0x3f7e1874	0.9925606
86	0x3d5f1d03	0.054471027
87	0xb803b090	-3.139727e-05
88	0x3ed59405	0.41714492
89	0xbf5804f1	-0.8438254
90	0xbafff888	-0.0019529024
91	0xbc51cfbd	-0.012805876
92	0xc0001a32	-2.0015988
93	0x3e53f17a	0.20697585
94	0x3f59a935	0.85023814
95	0x3b03138f	0.0020000672
96	0x3de2ee80	0.110806465
97	0xc01c0b3f	-2.4381864
98	0x3db6e996	0.08931272
99	0x3c6eff43	0.014587226
100	0xc02e28a8	-2.7212315
101	0xbfe73c54	-1.8065286
102	0xbecdde07	-0.40208456
103	0x3c5b1f35	0.01337414
104	0x3fb3ab2d	1.4036614
105	0x3f6debb1	0.9293776
106	0x3d23047f	0.03979921
107	0x3c5c0a04	0.013430122
108	0xbd85ab28	-0.06526786
109	0x3ff836bb	1.9391702
110	0x3ee69e47	0.4504263
111	0xbd0db23c	-0.034593806

wide_embeddings.6.weight f4 [955, 16]
0	0x3c3588b0	0.011079952
1	0xbdf3c26b	-0.11902317
2	0x3ed45d29	0.41477326
3	0xbd416d21	-0.047223214
4	0x3e877608	0.26457238
5	0xbe848504	-0.25882733
6	0xbd378bdb	-0.04481111
7	0xbcbba7b4	-0.022907116
8	0x3e0e3100	0.1388588
9	0x3f224d9c	0.6339967
10	0xbc8a6617	-0.016894383
11	0x3d651f58	0.055938095
12	0xbd693065	-0.05693092
13	0x3f1fada8	0.62374353
14	0x3d842c7b	0.064537965
15	0x3dc97665	0.09837035
16	0x3f1b6576	0.6070169
17	0x3e715350	0.23566937
18	0x3ed241b9	0.41065767
19	0xbe0bac8f	-0.13640045
20	0x3f786c8a	0.9704062
21	0x3e2f4a01	0.17118074
22	0xbdf4aea6	-0.11947374
23	0xbdab6548	-0.08368927
24	0x3e378c3e	0.17924592
25	0xbeb0eaad	-0.34554043
26	0xbf0d57ae	-0.55211914
27	0xbcc63af8	-0.02419804
28	0xbdacf427	-0.08445006
29	0x3f694bbb	0.9113118
30	0x3dbc2917	0.09187525
31	0xbe333dda	-0.17504063
32	0xbf322f38	-0.696033
33	0xbe726875	-0.2367266
34	0x3ee771a9	0.45203903
35	0xbecfd8e4	-0.40595162
36	0x3f95f318	1.1714811
37	0xbea2e348	-0.31814027
38	0xbfc3c540	-1.5294571
39	0xbf8e33fd	-1.1109616
40	0xbfdc2669	-1.7199222
41	0x4018ea61	2.3893054
42	0xbef67e74	-0.4814335
43	0x3f5ab6d0	0.854352
44	0x3e2c68ce	0.16836855
45	0xbd9b97e3	-0.075973295
46	0xbdfcb05d	-0.12338326
47	0x3fd9c587	1.7013406
48	0xbfe32049	-1.7744228
49	0xbf07d7a9	-0.53063446
50	0x3f1fb91d	0.62391835
51	0x3d17328c	0.03691344
52	0x4001f835	2.0307744
53	0xbbafe420	-0.005367771
54	0x3e8b3081	0.27185443
55	0x3d8e8634	0.06959191
56	0xba4ad997	-0.0007738112
57	0xbef3b0ff	-0.47595975
58	0xbe476fd1	-0.19476248
59	0xbe37c722	-0.17947057
60	0xbf04778c	-0.51744914
61	0xbf6bfc4a	-0.9218184
62	0x3d4e314d	0.050339986
63	0xbe440ec5	-0.19146259
64	0x3f37849f	0.7168674
65	0x3ec2b2cb	0.38027033
66	0x3c58f713	0.013242501
67	0xbe79f526	-0.24409923
68	0x3f8c917c	1.0981898
69	0x3fe2f337	1.7730473
70	0xbf40cdbc	-0.75313926
71	0xbe65f278	-0.22455776
72	0x3ead6fe3	0.33874425
73	0x3f01c596	0.5069212
74	0xbfb727d8	-1.4309034
75	0xbe61be92	-0.22045353
76	0x3dd9e9cf	0.106402986
77	0xbebeff97	-0.37304375
78	0x3d9a9d30	0.075495124
79	0xbeffba89	-0.49947003
80	0xbf05d82a	-0.52282965
81	0x3f308c28	0.6896386
82	0x3f0ec31f	0.5576648
83	0xbd634c31	-0.055492584
84	0xbeaeb6f9	-0.34123972
85	0xbf0649b6	-0.52456224
86	0xbf6de0b4	-0.92920995
87	0xbebadac1	-0.3649502
88	0x3ee85256	0.45375317
89	0x3f52941a	0.82257235
90	0x3f45aa56	0.77213037
91	0xbdd603ca	-0.104499415
92	0x3ddf866f	0.10914313
93	0x3f2e9d1d	0.68208486
94	0xbbbf8825	-0.005845087
95	0xbec19449	-0.37808445
96	0xbef65d0e	-0.4811787
97	0x3f3e5502	0.7434846
98	0xbf803a87	-1.0017861
99	0x3ed92ffc	0.42419422
100	0x3f356f9e	0.7087344
101	0xbfbf2324	-1.4932599
102	0x3ffa95bf	1.9576949
103	0xbe8cec55	-0.27524057
104	0xbdbe1229	-0.092808075
105	0x400126d6	2.0179954
106	0xbf6395e0	-0.88900566
107	0xbcf3ae46	-0.029746186
108	0xbf3950e6	-0.72389066
109	0x3f97a7b0	1.1848049
110	0xbe5dc7c0	-0.2165823
111	0x3eda9360	0.42690563
112	0xbf34bc81	-0.70600134
113	0x3dec5310	0.115392804
114	0x3f167d72	0.58785164
115	0xbd957221	-0.07297159
116	0x3efa5132	0.48890072
117	0x3e409255	0.18805821
118	0x3f4776e3	0.7791578
119	0xbee8079e	-0.4531831
120	0x3e8b0dda	0.27159005
121	0xbfe7c22b	-1.810613
122	0x3dc266bc	0.09492251
123	0x3e054e39	0.13018121
124	0xbdf5831e	-0.11987899
125	0x3ec613fe	0.38687128
126	0x3d04e5dc	0.032445773
127	0x3dba5d40	0.09099817
128	0xbea90ff3	-0.3301998
129	0xbe8c38a0	-0.2738695
130	0xbef0bc48	-0.47018647
131	0xbdcdb1f8	-0.100437105
132	0x3f6b698f	0.91957945
133	0x3eda7c7c	0.426731
134	0x3db4f4e1	0.088357694
135	0xbf5ecc7e	-0.8703078
136	0x3f2913f8	0.66046095
137	0xbe53ddae	-0.20690033
138	0xbe32a01e	-0.17443892
139	0x3dbff450	0.09372771
140	0xbf4a97c5	-0.7913783
141	0x3e434415	0.1906894
142	0xbe499cad	-0.19688673
143	0xbf632a13	-0.88736075
144	0xbf6aebc8	-0.91766024
145	0xbde4b348	-0.11167008
146	0xbdd079bf	-0.10179471
147	0x3e5c2ff6	0.2150267
148	0xbd4c11f0	-0.049821794
149	0x3f0b4391	0.54399973
150	0x3fd065ab	1.6281027
151	0xbf57c3c5	-0.84283096
152	0xbed218f1	-0.41034654
153	0xbf099471	-0.5374213
154	0x3d63fe53	0.055662464
155	0xbcc2632b	-0.023728928
156	0xbfa30e53	-1.2738746
157	0xbf3b3903	-0.7313387
158	0xbf02c56d	-0.510825
159	0x3fb74f8c	1.4321151
160	0xbf842366	-1.0323303
161	0x3fb4485a	1.408458
162	0xbeebea1f	-0.46077058
163	0x3ea4d9d4	0.3219744
164	0x3e8ad5b5	0.2711617
165	0x3d96758e	0.073466405
166	0xbf9e0d3b	-1.2347788
167	0x3eb7c2a7	0.35890695
168	0x3f8311b2	1.0239775
169	0x3f9e0c05	1.2347418
170	0x3e5ae685	0.21376999
171	0x3f0a2b49	0.539723
172	0xbf103cd8	-0.5634284
173	0xbf31a681	-0.6939469
174	0x3e3e60d1	0.1859162
175	0xbf6cdb98	-0.92522573
176	0xc0167a31	-2.351208
177	0xbe296ff6	-0.16546616
178	0xbcfb5c4d	-0.03068366
179	0xbe18980c	-0.14901751
180	0x3f1db632	0.61606133
181	0x3f32f50e	0.69905174
182	0x3da09b7d	0.07842157
183	0x3e79db85	0.24400146
184	0xbe1b279a	-0.15151826
185	0x3ec320b4	0.38110888
186	0xbeaa830b	-0.33303103
187	0xbe121a2a	-0.14267793
188	0xbb6292f1	-0.0034572447
189	0x3f5618d5	0.8363164
190	0xbde7967c	-0.113079995
191	0xbe3b34e9	-0.18281902
192	0x3f4b2ffa	0.7937008
193	0xbe873b08	-0.26412225
194	0xbd9d51ba	-0.07681604
195	0xbe392299	-0.18079604
196	0x3fd7dd02	1.6864321
197	0x3e30b924	0.17258126
198	0x3fd0f8d1	1.6325933
199	0x3d4aaf93	0.049483847
200	0xbf364662	-0.71201146
201	0x3ed2561c	0.4108132
202	0xbe68697e	-0.22696492
203	0x3d6b4a56	0.05744394
204	0xbec99284	-0.39369595
205	0x3f70d138	0.9406924
206	0xbea822bf	-0.3283901
207	0x3f267238	0.65018034
208	0xbe6d93ad	-0.23200865
209	0x3fe68443	1.8009113
210	0xbfa6caf0	-1.3030682
211	0x3ea354fa	0.3190077
212	0x3f87af27	1.0600327
213	0xbfb1debe	-1.38961
214	0xbee9d25f	-0.45668313
215	0xbe7bf58d	-0.24605389
216	0xbe95df02	-0.29271704
217	0x3fc18e99	1.5121642
218	0x3fc62d77	1.5482625
219	0x3e137156	0.14398703
220	0xbf17307d	-0.5905836
221	0x3dc60e7d	0.09670732
222	0xbdfbc146	-0.12292723
223	0xbfeee2a3	-1.8662914
224	0xbe155757	-0.14584099
225	0xbeb3bfef	-0.3510737
226	0xbe4610bd	-0.19342323
227	0x3dc9ea8d	0.0985919
228	0x3f247df9	0.6425472
229	0x3ea7f172	0.32801396
230	0xbee27f0e	-0.4423756
231	0xbebed420	-0.37271214
232	0x3e8faa10	0.28059435
233	0x3ead245e	0.33816808
234	0x3f4733cb	0.77813405
235	0x3b92ec37	0.0044837254
236	0x3d8506c8	0.06495434
237	0x3f7a2f89	0.9772878
238	0x3d501023	0.05079664
239	0xbedbbed7	-0.42919037
240	0x3dd15bb2	0.102225676
241	0xbeca999f	-0.3957033
242	0x3e4157ce	0.18881151
243	0x3e10af9d	0.14129491
244	0x3f9f3687	1.2438515
245	0xbe01299d	-0.1261353
246	0xbe96ab86	-0.29427737
247	0xbd821e2d	-0.06353412
248	0xbe4b48be	-0.19851968
249	0x3f934f85	1.1508642
250	0xc01c085c	-2.4380102
251	0xbd2e87b7	-0.042609897
252	0xbf906fe9	-1.1284152
253	0x3fc1d348	1.5142603
254	0x3dcf39a4	0.10118416
255	0xbdab12ae	-0.08353172

deep_layers.0.weight f4 [128, 7]
0	0x3d6d0341	0.05786443
1	0xbb8d3ede	-0.004310473
2	0x3f08b873	0.5340645
3	0xbdd2874e	-0.102797136
4	0x3eb4ccaa	0.35312396
5	0x3e9e6b40	0.309412
6	0xbcb98afc	-0.02264928
7	0xbda82f9e	-0.08212207
8	0xbbe33938	-0.0069343112
9	0xbe9cb8ad	-0.30609646
10	0xbc4aad2d	-0.01237039
11	0x3d69bcc9	0.057064805
12	0xbd299a72	-0.041407056
13	0x3c6517d9	0.0139827365
14	0x3e3084de	0.17238185
15	0xbb61a087	-0.0034427957
16	0x3ee09178	0.43860984
17	0x3dcab189	0.098971434
18	0x3e391526	0.18074474
19	0xbced5576	-0.028971415
20	0x380d1a9e	3.364181e-05
21	0x3db46fc7	0.08810382
22	0x3bd58aa2	0.0065167705
23	0x3ee07e2f	0.4384627
24	0xbd774bf8	-0.060375184
25	0xbf57d328	-0.84306574
26	0xbd4db72f	-0.050223526
27	0x3c2154e8	0.009846903
28	0x3e9d5ad6	0.30733365
29	0xbadd9460	-0.0016905181
30	0x3e98eed7	0.2986972
31	0x3e0db8a2	0.13839963
32	0x3d83ab2c	0.06429133
33	0xbdbaf815	-0.09129349
34	0x3c7a7fb8	0.01528924
35	0xbfcec03d	-1.6152416
36	0x3c543cd1	0.012953953
37	0x3ea98177	0.33106586
38	0xbe15fa2a	-0.14646211
39	0x3e926dc3	0.28599367
40	0xbe4f22c4	-0.20228106
41	0xbcab20a5	-0.02088959
42	0x3cef7ba8	0.029233769
43	0xbc01ed25	-0.007930075
44	0xbebb198a	-0.36542922
45	0x3c7bf4e8	0.015378214
46	0x3d713f39	0.058898184
47	0x3c80f511	0.015741857
48	0x3c408a28	0.011751689
49	0x3d034a74	0.032053426
50	0x3b9a72b0	0.004713379
51	0xbf2c7bf9	-0.6737667
52	0x3ce2a06e	0.02766439
53	0x3d1ebebf	0.03875613
54	0x3c145e41	0.009055675
55	0x3bd4a6a8	0.0064895935
56	0x3d2fef6d	0.042952944
57	0x3c0fd026	0.008777654
58	0x3eb6dcf5	0.35715452
59	0x3db701ca	0.08935888
60	0x3e1735e2	0.14766648
61	0xbe005501	-0.12532426
62	0x3962d951	0.00021633996
63	0x3ca2933e	0.019845601
64	0x3b86e061	0.0041161035
65	0x3ee4af12	0.44664818
66	0x3dd48792	0.103774205
67	0x3ea5c624	0.32377732
68	0xbdadb7ea	-0.084823444
69	0x3c72edb7	0.014827183
70	0x3cf17914	0.02947668
71	0x3c7a5f7f	0.015281557
72	0x3f0331ab	0.5124766
73	0x3a852227	0.0010157273
74	0x3e0d284c	0.13784903
75	0x3b67868b	0.0035327997
76	0xbc8bfca9	-0.017088251
77	0x3e95cf17	0.2925956
78	0xbd1c3c23	-0.03814329
79	0x3edd8cf6	0.43271607
80	0x3ded90a1	0.115998514
81	0x3e1229a0	0.14273691
82	0x3d3f8b3c	0.046763644
83	0x3c69bd68	0.014266349
84	0x3e8ec07c	0.2788123
85	0x3c7e38ee	0.015516503
86	0x3f0dfa29	0.5545984
87	0x3e03550f	0.12825416
88	0x3ea858aa	0.32880145
89	0x3d58c250	0.052919686
90	0xbc360882	-0.011110427
91	0x3d1629ca	0.036660947
92	0xbc4a3920	-0.012342721
93	0xbeac10b9	-0.33606508
94	0x3c8159ee	0.015789952
95	0x3dbce85b	0.09224006
96	0x3c858fb4	0.016303875
97	0x3b7483e7	0.0037310065
98	0xbd08e628	-0.03342262
99	0xbc8b41e1	-0.016999187
100	0x3e5394c3	0.20662217
101	0xbeb1b7d0	-0.3471055
102	0xbec187f0	-0.37799025
103	0xbe9981f8	-0.2998197
104	0x3bd0d55a	0.0063730897
105	0x3d026a07	0.031839397
106	0xbb972dde	-0.004613622
107	0x3f08192c	0.5316341
108	0x3ae67e4b	0.0017585246
109	0x3cd7b879	0.02633308
110	0xbc1f6f75	-0.009731163
111	0x3c86ecb0	0.016470283
112	0x3d53d4fe	0.051716797
113	0x3c8a86e9	0.016910033
114	0x3ec9f642	0.39445692
115	0xbb2dde1c	-0.0026530093
116	0xbdbb3013	-0.09140029
117	0xb957152f	-0.0002051189
118	0xbb02030f	-0.001983825
119	0x3d304cea	0.0430421
120	0xbb1a5d29	-0.0023554063
121	0xbebad481	-0.36490253
122	0xbba556d5	-0.0050457516
123	0x3d92ab9f	0.071616404
124	0xb9f502e4	-0.00046732195
125	0x3b3471a4	0.0027533555
126	0xbb53d4a6	-0.0032322793
127	0x3be1c820	0.006890312
128	0xbf9710c7	-1.1801995
129	0x3d57536e	0.0525698
130	0xbba85703	-0.0051373257
131	0xbc001d40	-0.007819474
132	0xbc23831e	-0.009979991
133	0xbfa5ac0a	-1.2943127
134	0xbc5c65be	-0.013451992
135	0xbec35077	-0.38147327
136	0x3c882a60	0.016621768
137	0xbf211c7a	-0.62934077
138	0xbd9b0202	-0.07568742
139	0xba84639d	-0.0010100488
140	0xbe85ed78	-0.26157737
141	0x3b62c36a	0.003460134
142	0x3ee18591	0.44047216
143	0x3dd2be83	0.102902435
144	0x3e8b07dc	0.27154434
145	0x3cf3b2b1	0.029748293
146	0xbc0d97f6	-0.008642187
147	0x3bd3aa3e	0.0064595034
148	0xbbc16760	-0.005902216
149	0xbf88f24b	-1.0698942
150	0xbcab6ef0	-0.020926923
151	0x396a9dca	0.0002237476
152	0xbbd576eb	-0.0065144203
153	0xbc2272aa	-0.009915033
154	0x3c05754d	0.0081456425
155	0x3a2ee097	0.000667104
156	0xbf8dea5b	-1.1087145
157	0xbc32c1af	-0.010910436
158	0xbd43e2bc	-0.047823653
159	0xbcdf0568	-0.027224258
160	0xbb9229ad	-0.0044605345
161	0x3c44d04d	0.012012553
162	0xbc6e03aa	-0.014527241
163	0x3e4c40bd	0.1994657
164	0x3bd6e2f8	0.0065578185
165	0x3e469dec	0.1939618
166	0x3c9a5121	0.018837513
167	0xbc09d41d	-0.008412388
168	0x3c165553	0.009175616
169	0xbc6c8bf9	-0.014437669
170	0xbf88e63b	-1.0695261
171	0x3d121902	0.03566838
172	0xbadb6c9f	-0.0016740746
173	0xbb769c79	-0.0037629886
174	0x38c56408	9.412324e-05
175	0x3cacf2b0	0.021111816
176	0x3a0aab68	0.0005289824
177	0xbf8a0828	-1.0783739
178	0x3d0d56e2	0.034506686
179	0xbc63c82e	-0.013902707
180	0xbb91d6db	-0.0044506616
181	0xbb3265ee	-0.00272214
182	0x3d63c602	0.055608757
183	0xbc224054	-0.009903032
184	0x3edf5ffa	0.43627912
185	0xbef4062b	-0.47660956
186	0x3e97f944	0.29682362
187	0x3f105eb2	0.56394494
188	0xbb1a6af5	-0.0023562287
189	0xbf7467a8	-0.95470667
190	0x3b9fc513	0.004875788
191	0xbf1a1339	-0.6018558
192	0xbd32cbc0	-0.043651342
193	0x3df81300	0.12112999
194	0xbd45bf95	-0.04827841
195	0xbb6bb926	-0.0035968511
196	0xb985c971	-0.00025517822
197	0x3bc3534c	0.0059608575
198	0x3eb78a40	0.35847664
199	0xbcdce569	-0.02696486
200	0xb88636e4	-6.399842e-05
201	0x3bd651d9	0.0065405187
202	0x3be5d7ee	0.007014266
203	0xbd105a1f	-0.035242196
204	0x3cdc6dba	0.02690779
205	0x3ed5ef4e	0.41784137
206	0x3db788cc	0.08961639
207	0x3e49a8d3	0.19693308
208	0xbddd0889	-0.107926436
209	0x3be06b44	0.0068487246
210	0x3d006b21	0.031352166
211	0xbc8d2983	-0.017231708
212	0x3ef7c865	0.48395076
213	0xbb1ff46a	-0.0024407157
214	0x3d48238f	0.048862036
215	0x3c69f9d9	0.01428076
216	0x3c527326	0.012844836
217	0xbc4c2417	-0.012459776
218	0x3c7e5e0d	0.015525353
219	0xbf75c337	-0.96001
220	0x3d3ac92e	0.045602016
221	0x3c6ff930	0.014646813
222	0x3c739765	0.014867638
223	0x3b9a5990	0.0047103837
224	0x3b48ba57	0.0030628645
225	0xbc2cf344	-0.010556046
226	0xbea600be	-0.3242244
227	0x3bf90e0c	0.0076005515
228	0xbedb6b64	-0.4285537
229	0x3c30a90b	0.0107824905
230	0xbb904468	-0.004402686
231	0x3e566429	0.20936646
232	0x3bb702ed	0.0055850656
233	0x3f1ccec3	0.61252993
234	0x3ddb9d26	0.10723333
235	0x3f1e870b	0.6192481
236	0x3d2ac3ec	0.041690752
237	0x3cb34072	0.021881316
238	0xbc451d44	-0.012030903
239	0xbb8fdbdc	-0.004390223
240	0xbf923599	-1.1422607
241	0xbc04e920	-0.008112222
242	0xbb95e9d3	-0.004574993
243	0x3a541b52	0.0008091229
244	0x39d0f8d4	0.00039858243
245	0xbbe81174	-0.0070821587
246	0x3b85fba7	0.004088837
247	0x3e9b1dcb	0.30296168
248	0xbbef5274	-0.0073035304
249	0x3a42598e	0.00074138574
250	0x3b429dfc	0.0029696217
251	0xba48d890	-0.0007661665
252	0x3b41cecb	0.002957272
253	0x3c097311	0.00838925
254	0xbfa9cc90	-1.3265553
255	0x3cf9d983	0.030499225

deep_layers.0.bias f4 [128]
0	0xbfbac96e	-1.4592721
1	0x3e9cc8bf	0.30621907
2	0xbfb1e018	-1.3896513
3	0xbfc9e40b	-1.5772718
4	0xbf7de8ec	-0.99183536
5	0xbfd977f3	-1.6989731
6	0x3e95a5a4	0.29227936
7	0x3d7e122a	0.06202904
8	0xbf8e5148	-1.1118555
9	0xbfae3d83	-1.3612522
10	0xbf7387e6	-0.9512924
11	0xbfaf0352	-1.3672888
12	0xc028a200	-2.6348877
13	0x3e966a28	0.29377866
14	0xbe8fa60f	-0.2805638
15	0xbf65d71a	-0.89781344
16	0xbebb9520	-0.3663721
17	0x3e979106	0.29602832
18	0xbf81b40a	-1.0133069
19	0xbf177535	-0.5916322
20	0xbfbe11f2	-1.4849226
21	0xbf80280b	-1.001222
22	0xbea8ca3c	-0.32966793
23	0xbd7cef93	-0.061751913
24	0xbf654672	-0.89560616
25	0xbf66ae16	-0.90109384
26	0xbfbe4978	-1.4866171
27	0xbe80a467	-0.2512543
28	0x3e961b84	0.29317868
29	0xbfb2d8b5	-1.3972384
30	0xbefeb38a	-0.49746352
31	0xbf39a4d9	-0.7251716
32	0x3f066f3a	0.5251347
33	0xc031ea1c	-2.779914
34	0xbf8d53a4	-1.104115
35	0x3e4f2048	0.20227158
36	0xbf165687	-0.5872578
37	0x3e8bee24	0.27330124
38	0xbf9eb222	-1.2398112
39	0xbf830c72	-1.0238173
40	0x3f16af0e	0.5886086
41	0xbf5fa5f8	-0.87362623
42	0xbf14d3ac	-0.58135486
43	0xbf2bb601	-0.6707459
44	0xbe6b139d	-0.229567
45	0x3d8210a2	0.06350829
46	0xbf7a0910	-0.9767008
47	0x3e997480	0.29971695
48	0xbf8596e1	-1.043667
49	0xbfaa5d2f	-1.3309687
50	0xbfa978ce	-1.3239992
51	0x3e8da6d7	0.2766635
52	0xbf18d293	-0.5969631
53	0xbf72d4e7	-0.94856113
54	0x3e917e14	0.28416502
55	0x3e12de1b	0.14342539
56	0xbf8078b3	-1.0036834
57	0xc02a4196	-2.660253
58	0x3e964a0c	0.29353368
59	0xbef4f541	-0.47843364
60	0xbf2f300b	-0.6843268
61	0x3e39b646	0.18135938
62	0xbfb49db4	-1.4110627
63	0xbfc44419	-1.5333282
64	0xbf74df8e	-0.9565362
65	0x3f0d95f4	0.55306935
66	0xbd0f2a25	-0.0349523
67	0xbea82be3	-0.32845983
68	0xbfdcd6ca	-1.7253048
69	0x3ed522ed	0.4162821
70	0x3e44acb3	0.19206505
71	0xbf377bdf	-0.7167339
72	0x3e902ce3	0.28159246
73	0xc007ad2b	-2.1199443
74	0x3e9c6788	0.30547738
75	0xbf9be9dc	-1.2180743
76	0x3e58ca16	0.2117084
77	0xbf805071	-1.0024549
78	0xbf588233	-0.8457367
79	0x3e9a3914	0.30121672
80	0x3e912faf	0.28356692
81	0xbf49ee2a	-0.78879035
82	0xbf873556	-1.0563152
83	0xbe9c4e1a	-0.30528337
84	0x3c3be9c5	0.011469309
85	0xbf83d5b4	-1.0299592
86	0x3e9531d2	0.29139572
87	0xbf65dd50	-0.8979082
88	0x3e1bb97b	0.15207474
89	0xbfcbb899	-1.591571
90	0xbf669449	-0.90070015
91	0xbf74962b	-0.9554164
92	0xbf700dd2	-0.9377109
93	0x3e60068b	0.21877496
94	0xbf142d68	-0.57881784
95	0xbe8abdac	-0.27097833
96	0xbd382d99	-0.04496536
97	0xbfaea1de	-1.3643148
98	0xbf962d22	-1.1732523
99	0xbf896f71	-1.0737134
100	0x3f2fda47	0.6869244
101	0x3e3f7f60	0.18700933
102	0xbfda8ccd	-1.7074219
103	0x3ef41ba6	0.47677344
104	0xbe24749e	-0.16060111
105	0xbf887f42	-1.0663836
106	0xbf8537c0	-1.0407639
107	0xbfc52919	-1.5403167
108	0xbfcc4c37	-1.5960759
109	0xbee9c0aa	-0.45654804
110	0xbe986d63	-0.29770955
111	0xbfe42adc	-1.782558
112	0x3e90bdad	0.2826971
113	0xbeb6e22e	-0.35719436
114	0xbf912b5f	-1.1341361
115	0xbfb60470	-1.4220104
116	0xbf123378	-0.57109785
117	0xbf01b276	-0.50662935
118	0xbfa3ce89	-1.2797405
119	0xbf6da047	-0.9282269
120	0xbf137bbd	-0.57610685
121	0xbf60879d	-0.8770693
122	0x3e99ac78	0.30014396
123	0xbef911d1	-0.48646405
124	0x3e2d925f	0.16950367
125	0xbf69cbfd	-0.91326886
126	0xbf891fbc	-1.071281
127	0x3e99aa5a	0.3001278

deep_layers.3.weight f4 [64, 128]
0	0x3ce1abe6	0.027547788
1	0xbee0cb61	-0.43905166
2	0x3e6cc82d	0.23123236
3	0x3f30d99f	0.69082063
4	0x3e28e9d4	0.16495448
5	0x400dabb6	2.2136054
6	0xbf504e5b	-0.8136956
7	0xbef73782	-0.48284537
8	0x3e117fad	0.1420886
9	0x3e4f9e9e	0.20275351
10	0xbd0f64e4	-0.035008326
11	0x3e2738f5	0.16330321
12	0xc034d34b	-2.8253963
13	0xbf27c489	-0.65534264
14	0x3d97920f	0.07400905
15	0xbbda0125	-0.0066529685
16	0xbc4d3b63	-0.012526366
17	0xbf3f8137	-0.7480654
18	0xbf0cbe65	-0.5497802
19	0x3e90b33e	0.2826175
20	0x3e4fe16c	0.20300835
21	0xbf12c1e3	-0.573271
22	0xbf1f1c97	-0.62153
23	0xbd2c8c30	-0.04212588
24	0xbea6bfe3	-0.32568273
25	0xbef05fa4	-0.46947968
26	0xbf38dcf5	-0.72212154
27	0xbe96e123	-0.2946864
28	0xbc8a3e0a	-0.016875286
29	0x3e11f011	0.14251734
30	0x3d509719	0.050925348
31	0xbf44a621	-0.7681599
32	0xc05183af	-3.2736623
33	0xc048ebc2	-3.1393895
34	0xbeafaaf3	-0.3431011
35	0x3c488bda	0.012240374
36	0xbeb6a659	-0.35673788
37	0xbf1dc118	-0.6162276
38	0x3d1b4c9c	0.037914857
39	0xbec311b0	-0.38099432
40	0xc058b89f	-3.3862684
41	0xbee10c67	-0.43954775
42	0xbec345ba	-0.38139135
43	0x3aaae032	0.0013036786
44	0x3dc22f86	0.094817206
45	0xbf475032	-0.77856743
46	0xbe894736	-0.26812142
47	0xbf3eff5a	-0.74608386
48	0x3e301a23	0.1719747
49	0x3f24b242	0.643345
50	0x3edffd92	0.43748146
51	0xbcfd8ea6	-0.03095181
52	0xbca96e90	-0.020682603
53	0xbee63984	-0.44965756
54	0xbf69bd55	-0.9130452
55	0xbe824448	-0.2544272
56	0x3e3d7be9	0.18504299
57	0xc07a01ef	-3.906368
58	0x3cfce159	0.030869173
59	0x3b578bf0	0.0032889806
60	0x3dd6f29e	0.10495494
61	0xbed0d0a6	-0.40784186
62	0x3e5978d3	0.21237497
63	0x3ea22aa8	0.3167317
64	0xbf0263cf	-0.50933546
65	0xc02eb399	-2.7297118
66	0xbf17ed0b	-0.59346074
67	0x3e5cfaeb	0.21580093
68	0x4016d6b7	2.3568552
69	0xc023b036	-2.55763
70	0xbf49c863	-0.7882139
71	0xbd5f04d6	-0.05444797
72	0x3bd64ad5	0.0065396824
73	0xbfd4a1b9	-1.6611854
74	0xbee34589	-0.4438899
75	0xbe3ffd46	-0.1874896
76	0xbf25aef1	-0.64720064
77	0x3cc36f87	0.023856891
78	0xbe9ce978	-0.30646873
79	0x3bfe6831	0.0077638854
80	0x3c63944d	0.013890338
81	0xbf193966	-0.5985321
82	0xbedc79a1	-0.43061545
83	0xbf02fee3	-0.51170176
84	0xbebb42ab	-0.365743
85	0xbe8dc3ba	-0.2768839
86	0x3cabd5dc	0.020976
87	0xbed2ac2d	-0.41146985
88	0xbf070326	-0.5273918
89	0x3f818629	1.0119067
90	0xc0032a7f	-2.0494688
91	0xbea3c942	-0.31989485
92	0xc002bfae	-2.0429492
93	0xbeecef83	-0.46276483
94	0xbf230ab3	-0.636882
95	0xbf15d7c8	-0.5853238
96	0xbd94d318	-0.072668254
97	0x3f251400	0.6448364
98	0x3f0e5534	0.5559876
99	0xbea89d4f	-0.32932517
100	0xc069dc98	-3.654089
101	0xbf297fac	-0.66210437
102	0x3fbeae29	1.48969
103	0xbff3e2a8	-1.9053545
104	0xbf191942	-0.59804165
105	0xbebd249c	-0.36941993
106	0xbeb9deef	-0.36302897
107	0x3f01c2b3	0.5068771
108	0x3e7d8e09	0.24761213
109	0x3d4e2284	0.050325885
110	0xbf162f69	-0.5866609
111	0x3f3f1040	0.7463417
112	0xbcc5b35a	-0.024133373
113	0xbd7641ba	-0.060121275
114	0xbd89140f	-0.06693279
115	0x3e5674e5	0.20943029
116	0xbf0ad0cb	-0.5422484
117	0xbef4b172	-0.4779163
118	0xbc80a16b	-0.01570197
119	0xbec398e4	-0.38202584
120	0xbfa32bb1	-1.2747709
121	0xbeb79375	-0.35854688
122	0xbeda2206	-0.42604083
123	0xbd8f460f	-0.069957845
124	0xbca1cc3c	-0.019750707
125	0xbf0e7631	-0.55649096
126	0xbee618b1	-0.44940713
127	0xbdc6cf0c	-0.0970746
128	0xbd4bf3e2	-0.04979313
129	0xbdb16d4f	-0.08663427
130	0xbd15afe8	-0.03654471
131	0xbca370ee	-0.01995131
132	0xbcdc4fe8	-0.026893571
133	0xbcc13cb1	-0.02358851
134	0xbe04f553	-0.12984209
135	0xbd0da31f	-0.034579393
136	0xbd82cba0	-0.06386495
137	0xbd948c2a	-0.07253297
138	0xbd5eeab6	-0.054423057
139	0xbd41a495	-0.0472761
140	0x3cb0c480	0.021578074
141	0xbdd716eb	-0.10502418
142	0xbdbb3ef1	-0.091428645
143	0x3c87fd6f	0.016600339
144	0xbdc9dbaa	-0.09856351
145	0xba1df41f	-0.00060254516
146	0xbcf08c11	-0.029363664
147	0x3d21f9e2	0.039544947
148	0xbd7137a1	-0.058890942
149	0x3da2c5d1	0.07947887
150	0xbd14e851	-0.036354367
151	0x3d64ee06	0.05589106
152	0xbcc3b63a	-0.023890603
153	0xbd94837a	-0.0725164
154	0x3d2edce7	0.042691138
155	0xbd78ab33	-0.060710143
156	0xbc4d06fc	-0.012513872
157	0x3cef9ac3	0.0292486
158	0x3ca81c15	0.020521203
159	0xbdacc1e0	-0.08435416
160	0xbd424e2f	-0.047437843
161	0xbd2a8b8d	-0.041636992
162	0xbdbecd5f	-0.09316515
163	0xbd900e89	-0.07034022
164	0xbd96b926	-0.07359533
165	0xbd88e1bd	-0.06683681
166	0xbe01b20c	-0.12665576
167	0xbdcb6233	-0.099308394
168	0xbd726575	-0.05917879
169	0xbd85b611	-0.06528867
170	0x3d2e4a15	0.04255112
171	0xbd98939d	-0.0745003
172	0xbdaf4e01	-0.085598
173	0x3d8e86e5	0.06959323
174	0xbd3bd6db	-0.0458592
175	0xbdd94d3f	-0.10610437
176	0xbc9aaf41	-0.018882396
177	0xbda9fda4	-0.08300331
178	0xbd1f394d	-0.038873006
179	0xbdb9f70f	-0.09080326
180	0xbc8981a6	-0.016785454
181	0xbc1fef91	-0.009761707
182	0xbc1ac02f	-0.009445234
183	0x3c8841db	0.016632965
184	0xbd27e8b6	-0.040993415
185	0xbc24059b	-0.010011102
186	0x3d860a65	0.06544951
187	0xbd64d3b8	-0.055865973
188	0xbdd8e3aa	-0.105902985
189	0xbd843785	-0.06455902
190	0xbdb92f72	-0.090422526
191	0x3c223433	0.009900141
192	0xbcaf598d	-0.021405006
193	0xbc14c19b	-0.009079362
194	0xbd3675f1	-0.04454607
195	0x3c2a21f7	0.010384074
196	0xbdfc68a7	-0.12324648
197	0xbd29c236	-0.04144498
198	0xbd95a270	-0.07306373
199	0xbdbf4203	-0.093387626
200	0xbd07dc2d	-0.03316896
201	0x3cd1e80c	0.025623344
202	0xbdccce89	-0.10000331
203	0xbdc8471d	-0.09779189
204	0xbd28a9c7	-0.041177537
205	0xbc7d80b8	-0.0154725835
206	0xbdc4d9f0	-0.09611881
207	0xbb816cb9	-0.0039497283
208	0x3ca9a243	0.020707255
209	0xbd90cd83	-0.07070448
210	0x3d606802	0.05478669
211	0xbdd25048	-0.10269219
212	0xbdb9eedb	-0.09078761
213	0x3b8cc40f	0.004295833
214	0xbe0506bc	-0.1299085
215	0xbd9598ea	-0.07304557
216	0xbba46c62	-0.005017803
217	0xbc6c8937	-0.014437011
218	0xbc55a211	-0.013039128
219	0xbdab2ee4	-0.08358553
220	0x3c96c44d	0.01840415
221	0xbd9d0feb	-0.07669052
222	0xbd1fac77	-0.038982835
223	0xbdd38280	-0.10327625
224	0xbc8ed006	-0.017433178
225	0xbdb6b307	-0.089208655
226	0xbda2d0c1	-0.07949973
227	0x3cddab73	0.027059292
228	0x3d4714a4	0.04860367
229	0xbd7bbeea	-0.061461367
230	0x3c53b663	0.012921902
231	0xbcefc788	-0.029269949
232	0xbbaf9345	-0.005358132
233	0xbd9ab1cb	-0.075534426
234	0xbdfdc96a	-0.12391932
235	0xbcd87fe1	-0.026428165
236	0xbda436c8	-0.08018261
237	0x3d5b89c3	0.053598177
238	0xbd1757a9	-0.036948834
239	0x3c85c693	0.01633004
240	0xbe076634	-0.13222581
241	0xbd8fe97b	-0.07026955
242	0xbd8e8ac4	-0.06960061
243	0x3c24338f	0.010022058
244	0x3d8332f8	0.06406206
245	0xbd5abe5c	-0.053404197
246	0xbdaa2e4a	-0.0830961
247	0xbe25691e	-0.1615338
248	0xbcc1cb81	-0.023656609
249	0xbb633663	-0.0034669868
250	0xbceaadbb	-0.028647294
251	0xbdbefbff	-0.09325408
252	0xbd893851	-0.067001946
253	0xbc15e7f8	-0.009149544
254	0x3d1a9618	0.037740797
255	0xbca5a5b5	-0.020220617

deep_layers.3.bias f4 [64]
0	0x3eade300	0.3396225
1	0xbe209003	-0.15679936
2	0xbd1b3ad9	-0.03789792
3	0xbda4291e	-0.08015655
4	0x3f84d89f	1.0378608
5	0xbc9ff3af	-0.019525377
6	0x3f981c13	1.1883568
7	0x3fcf1105	1.6177069
8	0x3d944d47	0.07241302
9	0xbd3fa343	-0.046786558
10	0xbdd73a5c	-0.10509178
11	0x3d0a5d35	0.033780295
12	0x3f80ab41	1.0052263
13	0x3f71d706	0.94468725
14	0x3f2ebf1d	0.68260366
15	0xbd3a6a8a	-0.04551176
16	0xbe223c5d	-0.1584334
17	0x3f92bb63	1.1463436
18	0x3f0f85ce	0.56063545
19	0x3f8e1aab	1.1101888
20	0x3e436938	0.19083107
21	0xbd746ee4	-0.059676066
22	0x3ee1b4da	0.4408329
23	0x3fc34439	1.5255195
24	0x3ed787c8	0.4209578
25	0xbe0134a0	-0.12617731
26	0x3fc8cb92	1.5687125
27	0xbcfb279b	-0.030658534
28	0x3f8478e2	1.034939
29	0x3ced1419	0.028940247
30	0x3ee50f4b	0.4473823
31	0x3dc414bd	0.09574268
32	0xbe12ada1	-0.14324047
33	0x3f2a421b	0.6650712
34	0x3d656888	0.056007892
35	0x3f84e59f	1.0382575
36	0xbac31c08	-0.0014885673
37	0x3fc2794d	1.5193268
38	0xbd794d6a	-0.060864843
39	0xbdf6163c	-0.120159596
40	0x3ec9da10	0.3942418
41	0x3f1d1ff2	0.6137687
42	0x3e077031	0.13226391
43	0x3c0aadeb	0.008464317
44	0x3bd18d7c	0.00639504
45	0x3f1278aa	0.5721537
46	0x3f92f21a	1.1480134
47	0x3fb00dc6	1.3754203
48	0x3dc1af7e	0.094573006
49	0xbc27bd70	-0.0102380365
50	0x3c0f5f5b	0.008750762
51	0x3ed409ad	0.41413632
52	0x3f6ef966	0.933493
53	0xbd0a9a19	-0.033838365
54	0x3f93bd26	1.1542099
55	0x3b833e56	0.0040052338
56	0x3be115da	0.00686906
57	0x3f3eed07	0.74580425
58	0x3e87a9cc	0.26496732
59	0x3dbc2daf	0.09188401
60	0x3fc74cd7	1.5570325
61	0x3dc22a1b	0.09480687
62	0xbdb35fda	-0.087585166
63	0xbec6d10b	-0.38831362
